data.pth (torch, 6039 bytes, 6 tensors)

l1.weight f4 [8, 70]
0.23976003 0.22762233 -0.03291685 0.6662766 0.12904905 0.7327415 0.4286851 -1.0506645
0.43786323 0.524481 0.04024031 0.6856187 0.3812884 0.43580696 0.24465096 0.02886693
0.09317052 -0.16872422 0.23608923 0.69914407 -0.033218708 0.25287515 -0.5964901 -0.63453424
0.11942511 1.2133192 0.503703 -0.021858692 0.9915614 -0.05727643 0.9237491 0.86306703
0.74203056 0.36196417 0.1982311 0.50026405 0.19557641 -0.005567624 0.2526058 0.29701188
0.6682547 -0.08268763 -0.07236009 -0.0044991523 0.73355824 1.3016392 0.10013767 0.40849683
0.07022641 0.43306097 1.7740562 -0.04127233 -0.035936352 0.39718273 -0.13486579 0.57494247
-0.08273929 -0.088405184 0.426695 0.8468441 0.15917411 0.35720178 0.25974655 0.100949645
0.2512516 0.15868999 0.7607134 -0.13342002 0.12441 0.29074234 -0.06724769 0.72112656
-0.033592746 0.3827288 0.48434323 0.40378243 0.97243893 -0.6569172 0.20870371 0.23012954
0.4318418 0.4481537 0.4004015 -0.34389102 0.22313991 0.88988966 0.5889 0.08135461
-0.10040281 0.31364068 -0.0345504 0.10036125 -0.10608378 -0.17542441 0.39047492 0.71212566
0.23572631 0.26343042 0.42081046 0.41844502 0.4149074 0.43563786 0.23315373 1.9894936
0.3974241 -0.37779456 0.10715836 0.61023545 0.53862023 0.161859 -0.40105683 0.32063615
0.7848017 0.33494937 0.45108742 -1.4066559 0.9820795 0.09641866 0.11210187 0.14594738
-1.5080335 0.41821262 1.0580324 0.2068721 0.36184272 -0.71531886 0.6269194 0.30978101
0.60100156 0.31219354 0.36547074 -0.30183178 0.797816 0.35491827 -0.3425983 0.29443362
1.9719213 0.13416727 0.20267409 0.5661908 0.26385817 0.37852827 -0.06517174 -0.14105424
0.29207805 -0.36856633 -0.65791684 0.96409035 -0.539836 -0.24026391 -0.13737984 -0.11248594
0.21366875 0.18785559 0.12596278 -0.16151726 0.48896223 0.34768432 0.52355444 -0.14016291
0.6274707 -0.538395 -0.33501837 -0.26336923 0.43998286 -0.22159089 -0.5396334 0.2511033
-0.34389943 0.43739283 -0.3341193 -0.3336479 0.11313615 -1.4676359 0.26938018 0.33354115
0.2384443 0.72877336 0.59970236 -0.30320534 -0.12306856 0.14835991 -0.34243488 0.43258375
-0.11334902 1.9281852 -0.07316709 0.45057896 0.18703777 -0.39326763 -0.90314317 0.3644714
-0.48263243 -0.29818738 0.4448961 0.05682636 0.6683644 0.41839314 0.24449837 -0.3638423
0.29201865 0.0636218 -0.1807851 0.1893654 0.23864262 0.19521688 1.5131454 0.3267545
0.3008483 0.15824655 0.1518493 -0.34712073 0.19786374 -0.11175986 -0.14841355 -0.25114504
-0.6466911 0.68582106 0.84700704 0.63728607 -0.2919338 -0.11115204 0.14963467 0.30690455
0.17348042 -0.24411309 -0.0880738 0.11791736 0.2612818 -0.111104265 0.12967473 0.68965113
0.46884406 0.65574753 -0.34336796 -0.41785187 0.881631 0.052025035 -0.52825135 -0.33871567
-0.5237624 -0.5279697 0.20060344 -0.9052331 -0.08329176 1.0877141 0.016234 -0.33097464
-0.15433268 0.6819837 0.6502661 0.0964914 -0.275882 0.08688655 -0.111361004 0.1600202
00000000: a783 753e d415 693e d2d3 06bd 1a91 2a3f
00000010: 6f25 043e f294 3b3f 9d7c db3e 2d7c 86bf
00000020: 9c2f e03e 6344 063f 06d3 243d b584 2f3f
00000030: 3c38 c33e 1722 df3e c885 7a3e 577a ec3c
00000040: 30d0 be3d 0bc6 2cbe 60c1 713e 1bfb 323f
00000050: 5710 08bd da78 813e 93b3 18bf d670 22bf
00000060: 2795 f43d 0b4e 9b3f aef2 003f 0011 b3bc
00000070: f8d6 7d3f b19a 6abd d27a 6c3f f6f1 5c3f
00000080: b7f5 3d3f 5e53 b93e 18fd 4a3e 4e11 003f
00000090: 2f45 483e 9d70 b6bb 8c55 813e f111 983e
000000a0: bd12 2b3f 2258 a9bd 8731 94bd a06d 93bb
000000b0: 79ca 3b3f 1d9c a63f fb14 cd3d 7f26 d13e
000000c0: ddd2 8f3d 2bba dd3e 4614 e33f 2d0d 29bd
000000d0: ff31 13bd 895b cb3e 421a 0abe 6e2f 133f
000000e0: 3873 a9bd c70d b5bd c477 da3e c6ca 583f
000000f0: 8afe 223e 27e3 b63e 80fd 843e b0be ce3d
00000100: 0da4 803e a17f 223e 1dbe 423f 429f 08be
00000110: acca fe3d 2edc 943e 28b9 89bd c09b 383f
00000120: 8c98 09bd 07f5 c33e d6fb f73e 92bc ce3e
00000130: c2f1 783f ba2b 28bf 6db6 553e 14a7 6b3e
00000140: 5e1a dd3e 6774 e53e 6d01 cd3e 7c12 b0be
00000150: ca7e 643e cfcf 633f 27c2 163f 3f9d a63d
00000160: fd9f cdbd 8395 a03e b884 0dbd 338a cd3d
00000170: 7442 d9bd 75a2 33be 54ec c73e de4d 363f
00000180: 3d62 713e 5ae0 863e 7874 d73e 6d3e d63e
00000190: be6e d43e ed0b df3e dabf 6e3e baa7 fe3f
000001a0: 2c7b cb3e 4a6e c1be d875 db3d 6438 1c3f
000001b0: 04e3 093f 5ebe 253e 5257 cdbe 6c2a a43e
000001c0: c4e8 483f 7c7e ab3e eef4 e63e 4d0d b4bf
000001d0: 9069 7b3f 2577 c53d aa95 e53d 3b73 153e
000001e0: 3e07 c1bf f71f d63e 9b6d 873f 48d6 533e
000001f0: 7343 b93e 231f 37bf ca7d 203f 9e9b 9e3e
00000200: 3ddb 193f d5d7 9f3e fb1e bb3e b289 9abe
00000210: ab3d 4c3f d9b7 b53e 0b69 afbe 01c0 963e
00000220: eb67 fc3f 2563 093e cc89 4f3e e1f1 103f
00000230: 6b18 873e 75ce c13e c378 85bd 8670 10be
00000240: 418b 953e bab4 bcbe 3d6d 28bf a0ce 763f
00000250: b132 0abf be07 76be 4dad 0cbe 075f e6bd
00000260: fbcb 5a3e 375d 403e 63fc 003e c864 25be
00000270: 4259 fa3e ae03 b23e aa07 063f de86 0fbe
00000280: eba1 203f 41d4 09bf 8787 abbe 55d8 86be
00000290: 6f45 e13e b9e8 62be 6a25 0abf 9d90 803e
000002a0: 9613 b0be f4f1 df3e af11 abbe e6d3 aabe
000002b0: edb3 e73d 7edb bbbf 33ec 893e e8c5 aa3e
000002c0: be2a 743e e490 3a3f 1886 193f bb3d 9bbe
000002d0: 5f0b fcbd a9eb 173e a053 afbe 9e7b dd3e
000002e0: 8823 e8bd c6ce f63f a1d8 95bd 49b2 e63e
000002f0: d486 3f3e 605a c9be 6434 67bf ff9b ba3e
00000300: 991b f7be 04ac 98be 6cc9 e33e c2c2 683d
00000310: ee19 2b3f a037 d63e c85d 7a3e 8a49 babe
00000320: 7883 953e 254c 823d bb1f 39be 01e9 413e
00000330: bb5e 743e efe6 473e c0ae c13f 5e4c a73e
00000340: ca08 9a3e 620b 223e 627e 1b3e cfb9 b1be
00000350: cb9c 4a3e 5ae2 e4bd b9f9 17be 1596 80be
00000360: 8c8d 25bf f891 2f3f 74d5 583f 2e25 233f
00000370: 5978 95be aea3 e3bd d539 193e 9822 9d3e
00000380: daa4 313e c8f8 79be 0960 b4bd a87e f13d
00000390: bac6 853e a28a e3bd 74c9 043e fa8c 303f
000003a0: 540c f03e 12df 273f edcd afbe aef0 d5be
000003b0: 92b2 613f 3418 553d 7b3b 07bf 246c adbe
000003c0: 4b15 06bf 0629 07bf fd6a 4d3e 5bbd 67bf
000003d0: df94 aabd 373a 8b3f 2afd 843c 8275 a9be
000003e0: 6309 1ebe 7c96 2e3f d777 263f 489d c53d
000003f0: 6840 8dbe 93f1 b13d 3d11 e4bd 56dc 233e

l1.bias f4 [8]
0.9854682 0.7073737 0.538197 0.4356057 0.97178227 0.38177586 0.49564838 0.60323167
00000000: a547 7c3f 7116 353f 47c7 093f b607 df3e
00000010: b9c6 783f 2078 c33e a0c5 fd3e 646d 1a3f

l2.weight f4 [8, 8]
-0.0058800504 -0.29789475 0.19971006 -0.28826025 0.18653354 -0.111259006 0.0051684002 -0.34379798
0.7503863 1.1478804 -1.5305862 -0.31648648 -0.059309963 0.79147416 -0.88986146 0.5846231
0.76654387 1.6168909 0.47304344 -1.4637829 0.88718355 -0.75416064 0.65418357 0.5610245
0.18262598 0.33516407 0.99247205 -0.36682847 -1.543377 1.20915 -0.62109745 1.4022999
1.7069005 -1.1430603 -0.2255484 0.9013596 1.8230528 -0.975997 -0.91917473 1.0935116
0.68617225 -0.26812991 0.23421137 -0.8065867 -0.4959745 0.074590795 -0.050572887 1.8239211
0.7167886 0.36532903 1.2059716 -0.6217608 -1.1039 -0.98279727 -1.314805 0.752771
0.39963013 0.73603666 -0.6870511 0.045295898 -0.48128086 1.8381963 -1.6307467 0.26946497
00000000: 70ad c0bb a985 98be cb80 4c3e d996 93be
00000010: a602 3f3e c3db e3bd af5b a93b 4a06 b0be
00000020: 5119 403f bfed 923f 40ea c3bf 840a a2be
00000030: 01ef 72bd 0d9e 4a3f f6cd 63bf dca9 153f
00000040: 383c 443f 48f6 ce3f c032 f23e 3d5d bbbf
00000050: 761e 633f ac10 41bf 9378 273f 4d9f 0f3f
00000060: 4e02 3b3e a09a ab3e a612 7e3f f1d0 bbbe
00000070: 618d c5bf 6dc5 9a3f 3e00 1fbf 907e b33f
00000080: b77b da3f cd4f 92bf 29f6 66be 81bf 663f
00000090: cb59 e93f f0da 79bf 094f 6bbf 30f8 8b3f
000000a0: fca8 2f3f 5348 89be 1bd5 6f3e 777c 4ebf
000000b0: 5ff0 fdbe 0fc3 983d 8425 4fbd 3f76 e93f
000000c0: 757f 373f 680c bb3e 475d 9a3f b72b 1fbf
000000d0: 984c 8dbf 9a98 7bbf 884b a8bf 9ab5 403f
000000e0: 529c cc3e e66c 3c3f 95e2 2fbf 3188 393d
000000f0: 726a f6be 044a eb3f 4fbc d0bf 50f7 893e

l2.bias f4 [8]
-0.26254502 0.90596837 0.7287861 0.07365331 0.742475 0.09833269 -0.31098813 0.13838199
00000000: 4d6c 86be 8bed 673f ba91 3a3f 8cd7 963d
00000010: d712 3e3f a662 c93d d639 9fbe 02b4 0d3e

l3.weight f4 [12, 8]
0.18844086 -0.40000173 -0.37489513 -0.5890284 -1.4601909 -0.25772786 1.1293867 -0.37019897
-0.2225306 -1.0732976 -1.3332181 -0.6634442 -1.9335042 -1.1664662 -0.7385312 -0.76485264
-0.2977397 0.61961335 -0.6175602 -0.45770335 -2.3382947 -0.38641903 -1.4184939 0.56638056
0.08676391 -2.184501 -0.8699433 -0.48159406 -0.060392134 0.23773721 0.9210128 -2.377834
0.14810003 -0.337924 -1.3656183 -0.6558092 -0.12732708 0.46103844 -0.6359734 -0.26557082
0.29763806 -1.2445248 -1.9604361 0.38455075 -1.5077467 0.7050785 -2.3440156 0.3294055
-0.33621684 -1.8550296 0.26951662 -1.1325061 -2.4849842 1.2554766 -0.29266524 -2.0113373
-0.023188129 1.3008503 -1.7711047 -2.4426184 0.40165386 -2.0842988 -1.698458 0.37717864
0.27250776 0.36663908 -0.2208973 -2.1975343 -0.16073368 0.83895653 -1.7763771 -2.2706287
0.2734156 -1.7864596 -1.6965431 -1.7799298 1.2443502 -1.987078 -1.0546275 -1.3817167
-0.26365086 -2.192349 0.91935456 -2.055791 -0.60561675 -2.0447657 -1.5752453 -1.382493
0.22481233 1.0903747 0.07592941 -1.9784422 -2.4868264 -1.8177347 -1.2758085 -0.18967888
00000000: a4f6 403e 07cd ccbe 41f2 bfbe 91ca 16bf
00000010: 89e7 babf e8f4 83be be8f 903f b88a bdbe
00000020: 10df 63be d161 89bf e4a6 aabf 7bd7 29bf
00000030: 117d f7bf c44e 95bf 6110 3dbf 62cd 43bf
00000040: 5771 98be fb9e 1e3f 6d18 1ebf 1858 eabe
00000050: 9fa6 15c0 b7d8 c5be 3591 b5bf 51fe 103f
00000060: 47b1 b13d ddce 0bc0 9bb4 5ebf 7f93 f6be
00000070: be5d 77bd 6271 733e 7fc7 6b3f 6f2e 18c0
00000080: 89a7 173e 6004 adbe 95cc aebf 1de3 27bf
00000090: 0862 02be 3b0d ec3e 27cf 22bf e6f8 87be
000000a0: 0464 983e 974c 9fbf 92ef fabf d6e3 c43e
000000b0: d8fd c0bf 0680 343f 5a04 16c0 d6a7 a83e
000000c0: 9d24 acbe 9c71 edbf 15fe 893e f6f5 90bf
000000d0: fb09 1fc0 75b3 a03f 38d8 95be c0b9 00c0
000000e0: 08f5 bdbc 4382 a63f 8fb3 e2bf dc53 1cc0
000000f0: 93a5 cd3e 2765 05c0 1267 d9bf 8f1d c13e
00000100: 2386 8b3e 1eb8 bb3e e732 62be 67a4 0cc0
00000110: 5f97 24be dbc5 563f 5360 e3bf fb51 11c0
00000120: 21fd 8b3e b5aa e4bf 5328 d9bf bdd4 e3bf
00000130: de46 9f3f 9258 febf 09fe 86bf 18dc b0bf
00000140: 3ffd 86be 724f 0cc0 d25a 6b3f 1492 03c0
00000150: b309 1bbf 71dd 02c0 a3a1 c9bf 88f5 b0bf
00000160: 3435 663e 6691 8b3f e180 9b3d 983d fdbf
00000170: 2a28 1fc0 88ab e8bf b14d a3bf 2e3b 42be

l3.bias f4 [12]
-1.9432235 1.6290615 -1.8611292 -1.9497325 -2.096134 -0.871703 -1.1539711 -0.40113914
-1.7069817 -1.0799876 0.27808523 -0.9552493
00000000: 8cbb f8bf 1685 d03f 7b39 eebf d690 f9bf
00000010: 0f27 06c0 ee27 5fbf 53b5 93bf 1c62 cdbe
00000020: 607e dabf 093d 8abf 3061 8e3e 388b 74bf
